MNIST_with_CNN.pth (torch, 38359 bytes, 6 tensors)

conv1.weight f4 [8, 1, 3, 3]
0.5423747 0.5139627 -0.1727548 -0.09574414 0.3391798 -0.13027476 0.0055707474 0.58270043
0.5350984 0.33881044 0.75523716 0.54771954 -0.2858084 0.07987018 -0.1776377 -0.70591605
-0.64439714 -0.3854265 0.3179538 0.33655724 0.5197462 0.5230822 0.5293131 0.5068562
0.22213805 -0.102813944 0.11821134 0.5921111 -0.080580376 -0.56210524 0.38274264 0.23235907
0.30231762 0.063938975 0.22860415 0.37405777 0.44227666 0.28081906 -0.4812776 0.8219251
-0.025275277 -0.78437066 0.50715894 -0.30095682 -0.48030198 -0.20102234 -0.18023784 0.35411993
0.47059622 0.68047184 0.5349619 0.7156256 0.25870487 -0.0072954143 0.5741938 0.43010604
-0.18683094 0.22895278 -0.5079282 -0.6393953 -0.6038045 -0.65481853 0.3148431 -0.6300563
-0.09694446 0.5293436 0.3488496 0.23641782 0.3917217 0.43173194 -0.05718823 -0.09458299
00000000: 11d9 0a3f 0f93 033f a2e6 30be 8115 c4bd
00000010: faa8 ad3e bf66 05be d18a b63b db2b 153f
00000020: 35fc 083f 9078 ad3e 3957 413f 5937 0c3f
00000030: 7b55 92be fa92 a33d a8e6 35be eab6 34bf
00000040: 36f7 24bf 9f56 c5be d7ca a23e 3b51 ac3e
00000050: 160e 053f b7e8 053f 1081 073f 54c1 013f
00000060: 2878 633e 1e90 d2bd c918 f23d 9894 173f
00000070: 5307 a5bd 21e6 0fbf d8f6 c33e 89ef 6d3e
00000080: 60c9 9a3e 70f2 823d 3517 6a3e 8084 bf3e
00000090: 1672 e23e 84c7 8f3e 056a f6be af69 523f
000000a0: 190e cfbc 84cc 48bf 2bd5 013f 0317 9abe
000000b0: 24ea f5be cdd8 4dbe 4590 38be 354f b53e
000000c0: fdf1 f03e 6733 2e3f 43f3 083f 3d33 373f
000000d0: f774 843e 5f0e efbb 5dfe 123f dc36 dc3e
000000e0: 9c50 3fbe 9972 6a3e 9507 02bf 69af 23bf
000000f0: ef92 1abf 30a2 27bf 1d33 a13e 5f4b 21bf
00000100: d18a c6bd 1083 073f 6a9c b23e 8317 723e
00000110: bf8f c83e f80b dd3e 353e 6abd bab4 c1bd

conv1.bias f4 [8]
-0.018705864 0.2759792 0.0076295007 -0.015666053 0.0898793 -0.006630861 0.30839613 0.042288803
00000000: 0a3d 99bc 254d 8d3e e400 fa3b 1856 80bc
00000010: a312 b83d b247 d9bb 19e6 9d3e 0637 2d3d

conv2.weight f4 [16, 8, 3, 3]
0.15575157 0.12359284 0.0023251127 0.13241373 0.18734977 0.09223756 -0.17868456 -0.18049283
0.038484413 -0.06738189 -0.15340587 -0.025572691 0.16132998 0.18222171 0.06919482 0.49535766
0.5607733 0.48662385 0.032599237 -0.15572941 -0.045038477 0.17764476 0.25431922 0.100547306
-0.17744829 -0.15660968 0.16217214 0.08379736 0.11315688 0.03675058 0.2819471 0.38903144
0.3360044 -0.15852737 -0.20215827 -0.12407448 -0.06323795 -0.25802544 -0.33061373 -0.40088642
-0.30789095 -0.34554735 -0.26360354 -0.3932026 -0.42764276 -0.029951697 0.056920126 -0.06880266
0.26661512 0.19650088 0.17388342 -0.24572144 -0.29060966 -0.20003344 -0.039858837 -0.06878915
-0.046305764 -0.10427402 -0.34906384 -0.17127194 0.21645169 0.12260268 -0.06897067 -0.009543518
0.102212265 -0.0050990013 0.21599694 0.114110135 0.087515265 -0.2438515 -0.08153279 -0.03500685
0.14605226 0.20779352 0.049542964 -0.040160775 -0.086468406 -0.068729475 -0.1526716 -0.27163962
-0.1977012 -0.009734924 -0.027937923 -0.1460233 0.18321542 0.2976823 0.13658223 0.19044732
0.04425762 -0.00048217463 0.024791343 0.19638458 0.081870385 0.14756918 0.23092121 0.0056777727
-0.20279922 -0.26706794 -0.21837226 0.16767642 0.2587075 0.05618327 0.080361746 0.093321934
-0.04305842 -0.092657134 -0.043743238 -0.17658526 -0.03245125 -0.15491281 -0.16047396 -0.38655093
-0.17747751 -0.032433376 -0.21055467 -0.40034583 -0.29491475 0.14393458 0.10922732 0.21782488
-0.031644154 0.038756456 -0.07888143 -0.038094312 -0.13726632 -0.1673095 0.013391923 -0.02130331
-0.10142845 -0.00024841164 0.20506237 0.32132795 -0.066026025 0.027569396 0.050632697 0.19024986
0.07407431 0.22483069 -0.01292102 0.007965565 0.011532596 0.061317228 -0.021750497 0.01058913
-0.16992325 0.2094971 0.076131605 -0.14427994 0.030862074 0.11910957 -0.14730603 0.015390731
-0.034846716 0.17382987 -0.2917431 -0.256103 -0.102493286 -0.09346953 -0.40691522 0.15719466
0.0026427447 -0.22973196 -0.18949266 0.10393506 0.12768841 -0.1476023 -0.08685261 0.016935322
0.0852121 0.00781953 0.062322363 -0.089839816 -0.07055795 0.07944368 -0.19140849 -0.161573
0.035634607 0.0041815117 0.006089248 -0.123149395 0.32197452 0.2553081 0.5229703 -0.09477952
0.34230882 0.5348031 0.2464834 0.06872359 -0.037678197 -0.09690897 -0.16137509 -0.03607584
0.045926407 0.18856514 -0.1240787 0.23847732 -0.023474956 -0.1111615 0.12370912 -0.066891484
-0.05386376 0.015568276 0.0622202 0.10850275 0.18213354 0.28000826 -0.22449917 -0.13436647
0.046503194 -0.08475055 0.026448105 0.14421114 0.026007822 0.22434393 0.11320156 -0.07131314
-0.009257818 0.17994523 0.049097065 -0.041729137 -0.018190606 0.10233891 -0.0053491606 0.0065337154
-0.03974951 -0.18294942 0.077881865 0.0054095513 -0.39929834 -0.12334704 -0.06268927 -0.14438967
0.08890808 0.1570776 0.14572322 0.16745374 0.18328339 0.11987838 0.065280475 -0.124183476
0.16142425 -0.1852754 -0.19320473 0.079026274 -0.09554475 0.10613007 0.019804232 0.08914955
0.08842759 0.1629697 -0.07970948 -0.057598513 -0.24311045 -0.07302726 -0.15082228 0.21060833
00000000: 577d 1f3e 3e1e fd3d eb60 183b 7797 073e
00000010: 9ed8 3f3e 0ce7 bc3d 16f9 36be 1dd3 38be
00000020: d5a1 1d3d 84ff 89bd 6e16 1dbe d27d d1bc
00000030: b033 253e 5498 3a3e 04b6 8d3d 859f fd3e
00000040: d78e 0f3f c326 f93e c786 053d 8877 1fbe
00000050: 447a 38bd 82e8 353e 2136 823e bfeb cd3d
00000060: 01b5 35be 4a5e 20be 7410 263e f39d ab3d
00000070: cbbe e73d c787 163d 5f5b 903e 212f c73e
00000080: c508 ac3e 0055 22be 9402 4fbe c31a febd
00000090: e682 81bd e91b 84be 3446 a9be fc40 cdbe
000000a0: e2a3 9dbe 95eb b0be 0bf7 86be da51 c9be
000000b0: fef3 dabe 435d f5bc 1425 693d 69e8 8cbd
000000c0: c781 883e 8737 493e 7f0e 323e 679e 7bbe
000000d0: caca 94be 91d5 4cbe 0543 23bd 53e1 8cbd
000000e0: 1dab 3dbd 9e8d d5bd 7fb8 b2be e961 2fbe
000000f0: 83a5 5d3e 1d17 fb3d 7f40 8dbd 6a5c 1cbc
00000100: aa54 d13d 8615 a7bb 4d2e 5d3e 93b2 e93d
00000110: 343b b33d 35b4 79be aafa a6bd 5863 0fbd
00000120: b98e 153e d3c7 543e 90ed 4a3d a07f 24bd
00000130: 5916 b1bd 0ac2 8cbd f255 1cbe 5914 8bbe
00000140: 2f72 4abe 3b7f 1fbc 12de e4bc 2287 15be
00000150: d39c 3b3e d069 983e 36dc 0b3e 9f04 433e
00000160: 7a47 353d 62cc fcb9 3717 cb3c 0a19 493e
00000170: a9ab a73d 601c 173e 9c76 6c3e 9c0c ba3b
00000180: 99aa 4fbe 21bd 88be fa9c 5fbe 5eb3 2b3e
00000190: 4f75 843e 6e20 663d b394 a43d 921f bf3d
000001a0: 075e 30bd 06c3 bdbd 1c2c 33bd c4d2 34be
000001b0: 9aeb 04bd 77a1 1ebe 4953 24be 01ea c5be
000001c0: aabc 35be dcd8 04bd a59b 57be 21fa ccbe
000001d0: 11ff 96be 9663 133e 93b2 df3d 7c0d 5f3e
000001e0: 4d9d 01bd 17bf 1e3d 968c a1bd c808 1cbd
000001f0: 8b8f 0cbe 2e53 2bbe cc69 5b3c 4784 aebc
00000200: b8b9 cfbd 3f3d 82b9 dffb 513e 1985 a43e
00000210: a738 87bd 37d9 e13c 3b64 4f3d dcd0 423e
00000220: 46b4 973d 043a 663e b0b2 53bc 0082 023c
00000230: 37f3 3c3c c627 7b3d 192e b2bc 087e 2d3c
00000240: 5c00 2ebe 6886 563e e3ea 9b3d 1fbe 13be
00000250: 76d2 fc3c b8ef f33d 64d7 16be 6829 7c3c
00000260: 6ebb 0ebd 7500 323e 5a5f 95be ef1f 83be
00000270: 00e8 d1bd f46c bfbd 3157 d0be a3f7 203e
00000280: e631 2d3b db3e 6bbe 5d0a 42be e8db d43d
00000290: c0c0 023e 0f25 17be c8df b1bd f2bb 8a3c
000002a0: ae83 ae3d 7c1d 003c bc45 7f3d f0fd b7bd
000002b0: b080 90bd 5eb3 a23d 9600 44be 6473 25be
000002c0: 98f5 113d 1005 893b 5188 c73b c035 fcbd
000002d0: d8d9 a43e beb7 823e 62e1 053f c41b c2bd
000002e0: 1a43 af3e dbe8 083f 2566 7c3e f4be 8c3d
000002f0: 7454 1abd 3678 c6bd 833f 25be 43c4 13bd
00000300: 541d 3c3d 3817 413e f91c febd 6633 743e
00000310: 8d4e c0bc a4a8 e3bd 355b fd3d 67fe 88bd
00000320: 3fa0 5cbd 1512 7f3c 9cda 7e3d b136 de3d
00000330: 3781 3a3e 3e5d 8f3e 1ce3 65be 5d97 09be
00000340: 227a 3e3d b291 adbd b2a9 d83c 16ac 133e
00000350: 5b0e d53c 6aba 653e 38d6 e73d a00c 92bd
00000360: 1aae 17bc 9043 383e 011a 493d 2cec 2abd
00000370: 7704 95bc 1097 d13d 0348 afbb c718 d63b
00000380: 62d0 22bd 1857 3bbe 8780 9f3d 9b42 b13b
00000390: d570 ccbe 5f9d fcbd 3b63 80bd e3da 13be
000003a0: 7015 b63d f3d8 203e 7838 153e fe78 2b3e
000003b0: a4ae 3b3e cc82 f53d c5b1 853d e853 febd
000003c0: 664c 253e d6b8 3dbe 76d7 45be 87d8 a13d
000003d0: f7ac c3bd b95a d93d 7c3c a23c 0a94 b63d
000003e0: 8619 b53d 87e1 263e b93e a3bd 6bec 6bbd
000003f0: f2f1 78be 518f 95bd 2871 1abe b6a9 573e

conv2.bias f4 [16]
-0.18507273 0.055451084 -0.21895707 -0.056099415 -0.039972726 -0.011427261 -0.052525494 0.047048606
-0.18389836 -0.10318375 -0.12986867 -0.055278894 -0.16776256 -0.13403653 -0.076136746 0.0059420737
00000000: b583 3dbe ad20 633d 4836 60be 80c8 65bd
00000010: 71ba 23bd 6839 3bbc f924 57bd 0ab6 403d
00000020: da4f 3cbe 0052 d3bd 4bfc 04be 1f6c 62bd
00000030: f3c9 2bbe df40 09be 95ed 9bbd bab5 c23b

fc.weight f4 [10, 784]
0.060721483 -0.025255146 0.030665698 -0.07756689 -0.013309978 -0.102171816 0.026361333 0.025367893
-0.02775637 -0.06540586 -0.013183364 0.032898158 0.04544572 -0.04632534 -0.018912518 -0.029432297
-0.04232628 0.030157993 0.045892175 0.023949392 -0.07864127 0.02261268 -0.07985216 -0.22384715
-0.24137804 -0.13961911 0.084137544 0.008438297 0.004769695 0.052515905 -0.020627458 -0.053502608
-0.018006047 0.0519919 0.09074598 0.046804126 -0.052663043 0.06911934 0.08962934 0.015594979
-0.026745731 8.253214e-05 0.054725744 -0.007685846 0.055260513 0.027966643 -0.0052642473 -0.098548286
-0.060845908 0.033992022 0.04430376 0.05575573 0.12310116 0.08637085 0.04230765 0.029078556
0.031202499 -0.07013003 -0.2542472 -0.039283846 -0.07432068 -0.03414839 -0.01606041 0.011233676
-0.07599289 -0.045995817 0.08039879 -0.08580004 -0.09669826 -0.026520621 -0.029096385 -0.1819868
-0.25658423 -0.09439998 -0.25864363 -0.047577307 0.003404391 0.015395474 -0.0009823935 -0.11636317
-0.102272645 0.10326113 0.049935333 0.039833218 0.030386796 -0.011952066 0.042379197 0.036531344
0.07466222 0.020257656 0.007280192 0.07457719 0.062646925 0.04449748 0.060142882 0.015242391
-0.053084716 0.009214437 -0.055992436 -0.06451594 -0.037998777 0.0071410597 0.02621891 -0.043031313
0.05576341 -0.09406642 -0.03171399 -0.04382707 -0.01963263 -0.025034804 -0.013334301 -0.06774476
-0.055593707 0.047686763 0.05914616 -0.06190583 -0.012370817 0.031114759 -0.046787243 0.020107806
0.1412284 0.038904 -0.07493405 0.040275626 0.025561094 -0.03718651 0.064026065 0.07645834
0.038664956 0.016920635 0.07020325 -0.0064612795 -0.17182873 0.088643655 0.031390447 0.04034373
-0.01800907 -0.009770638 -0.015484382 -0.030952215 -0.060190827 0.010926757 -0.21959805 -0.43913692
-0.47228038 -0.26218498 0.10336224 0.006705643 -0.016543727 -0.04361211 -0.08894891 -0.0077673444
-0.15341999 -0.0025426175 -0.0035494973 -0.0833244 -0.18600054 0.024164604 -0.062171426 -0.081428505
-0.0012122763 -0.024357101 -0.14812447 0.009277682 0.13649952 -0.009865645 -0.035824057 -0.008903769
-0.035960812 -0.026518693 0.052835442 -0.042724937 -0.20095555 0.030090746 0.0060112737 -0.008168675
0.05533202 0.020226778 -0.13718788 -0.031245876 0.088513754 0.07093031 -0.031316392 -0.023569273
0.062698856 0.022326441 0.028596561 -0.019745953 -0.019472733 0.086670674 0.052307025 0.023302263
-0.005277759 0.0034203131 -0.10551648 -0.059755705 0.020693477 -0.036766127 -0.06860288 -0.014108283
-0.032100435 -0.0009044713 0.04710382 -0.055212766 -0.10612771 -0.049446665 -0.057002142 -0.015373876
-0.045695055 -0.05451752 -0.07065569 0.06367181 0.017791754 0.003928514 -0.08286321 -0.123399585
-0.045531258 -0.025693467 0.12848265 0.08776514 -0.0009527527 0.011355503 0.057292715 -0.03902435
0.0871637 0.05690248 0.02304995 0.00947434 0.1147388 0.0016140288 -0.08168214 -0.043098163
0.010728743 -0.08829466 0.011679201 0.036809172 0.04744264 -0.07368113 0.13986303 0.0069099795
-0.108939335 -0.35185915 -0.31440717 -0.16875762 0.014498311 0.10066607 0.051642932 -0.01039013
-0.0075649205 0.009057004 0.016935145 0.07346673 0.067259796 0.01985085 0.017049436 0.0910637
00000000: 17b7 783d e1e3 cebc a136 fb3c 64db 9ebd
00000010: 1812 5abc 753f d1bd b9f3 d73c 54d0 cf3c
00000020: 5461 e3bc 82f3 85bd 09ff 57bc 38c0 063d
00000030: 4b25 3a3d a4bf 3dbd 6dee 9abc 001c f1bc
00000040: 525e 2dbd e50d f73c 6ff9 3b3d 8431 c43c
00000050: ad0e a1bd 3a3e b93c 8789 a3bd 3038 65be
00000060: ce2b 77be 50f8 0ebe 4e50 ac3d c840 0a3c
00000070: 1a4b 9c3b eb1a 573d eafa a8bc 8d25 5bbd
00000080: 6b81 93bc 75f5 543d 07d9 b93d afb5 3f3d
00000090: 34b5 57bd 718e 8d3d 968f b73d 1582 7f3c
000000a0: dd19 dbbc 1b15 ad38 1a28 603d 8dd9 fbbb
000000b0: d958 623d 4d1a e53c b57f acbb afd3 c9bd
000000c0: 8f39 79bd 383b 0b3d dc77 353d 1f60 643d
000000d0: 761c fc3d 33e3 b03d c94a 2d3d 2736 ee3c
000000e0: 629c ff3c 55a0 8fbd b02c 82be 19e8 20bd
000000f0: 7135 98bd 2fdf 0bbd 1f91 83bc 740d 383c
00000100: 29a2 9bbd 1c66 3cbd 1fa8 a43d eeb7 afbd
00000110: bd09 c6bd c641 d9bc 8b5b eebc bf5a 3abe
00000120: 025f 83be c754 c1bd f06c 84be 6ce0 42bd
00000130: 341c 5f3b 4c3d 7c3c a8c3 80ba d04f eebd
00000140: 5274 d1bd 927a d33d fe88 4c3d 2828 233d
00000150: bbed f83c 99d2 43bc cf95 2d3d e4a1 153d
00000160: 82e8 983d 62f3 a53c ad8e ee3b edbb 983d
00000170: 084d 803d fd42 363d 6258 763d 39bb 793c
00000180: 5c6f 59bd 26f8 163c 5358 65bd ef20 84bd
00000190: 9ba4 1bbd 8dff e93b 0ac9 d63c 9a41 30bd
000001a0: 2c68 643d e5a5 c0bd 87e6 01bd 0484 33bd
000001b0: 9cd4 a0bc ca15 cdbc 1d78 5abc c4bd 8abd
000001c0: 3ab6 63bd 3253 433d 3e43 723d f890 7dbd
000001d0: f8ae 4abc 61e4 fe3c fba3 3fbd 20b9 a43c
000001e0: 2d9e 103e cd59 1f3d 0677 99bd 0ef8 243d
000001f0: 8065 d13c e250 18bd 1920 833d 3196 9c3d
00000200: 255f 1e3d 259d 8a3c b9c6 8f3d 24b9 d3bb
00000210: dff3 2fbe ce8a b53d 4593 003d 783f 253d
00000220: c287 93bc 0715 20bc 35b2 7dbc 808f fdbc
00000230: a88a 76bd 2406 333c 50de 60be 8ed6 e0be
00000240: bcce f1be 1c3d 86be 95af d33d 03bb db3b
00000250: b686 87bc 9da2 32bd d92a b6bd 3585 febb
00000260: 211a 1dbe 0ba2 26bb af9e 68bb fca5 aabd
00000270: ed76 3ebe d9f4 c53c 77a7 7ebd fdc3 a6bd
00000280: 3ee5 9eba 8b88 c7bc f1ad 17be 6b01 183c
00000290: 88c6 0b3e 84a3 21bc 3fbc 12bd 1de1 11bc
000002a0: a54b 13bd bb3d d9bc fa69 583d 5800 2fbd
000002b0: 4bc7 4dbe de80 f63c 38fa c43b e8d5 05bc
000002c0: d4a3 623d a1b2 a53c fb7a 0cbe 5af7 ffbc
000002d0: b346 b53d e943 913d 9e45 00bd 5914 c1bc
000002e0: 4268 803d f1e5 b63c 5643 ea3c 44c2 a1bc
000002f0: 4885 9fbc 6580 b13d e43f 563d 63e4 be3c
00000300: 0df1 acbb 5527 603b 0619 d8bd 66c2 74bd
00000310: 5e85 a93c 1498 16bd ab7f 8cbd 6e26 67bc
00000320: bf7b 03bd 0b1a 6dba efef 403d c826 62bd
00000330: 7c59 d9bd 9688 4abd 147b 69bd b6e2 7bbc
00000340: bd2a 3bbd c34d 5fbd eeb3 90bd 5e66 823d
00000350: 03c0 913c c4ba 803b 30b4 a9bd ecb8 fcbd
00000360: fc7e 3abd 1b7b d2bc f590 033e 36be b33d
00000370: 27c2 79ba 6f0c 3a3c c4ab 6a3d ffd7 1fbd
00000380: e282 b23d 9312 693d 40d3 bc3c 433a 1b3c
00000390: 2dfc ea3d d28d d33a f748 a7bd b387 30bd
000003a0: 9cc7 2f3c d5d3 b4bd 1f5a 3f3c 37c5 163d
000003b0: 3753 423d 22e6 96bd 4138 0f3e 1c6d e23b
000003c0: 961b dfbd e226 b4be faf9 a0be ccce 2cbe
000003d0: 538a 6d3c 032a ce3d 8a87 533d 5d3b 2abc
000003e0: 27e3 f7bb d463 143c 93bb 8a3c ba75 963d
000003f0: 81bf 893d 409e a23c 42ab 8b3c 9b7f ba3d

fc.bias f4 [10]
0.04879732 0.059753187 0.0037310598 -0.037925724 -0.03821548 0.03591696 -0.01144343 0.0152025325
-0.06523081 0.011060155
00000000: b3df 473d c2bf 743d cc84 743b 0158 1bbd
00000010: d687 1cbd aa1d 133d 397d 3bbc 0b14 793c
00000020: bb97 85bd a735 353c
